audio2face/checkpoint/model_epochs_0.pt (torch, 187720 bytes, 4 tensors)

linear1.weight f4 [150, 256]
000000 0e 19 7a 3d c4 f7 0c 3d 88 4e f0 bc 38 0e fa 3c
       0.06105905 0.034415975 -0.029334322 0.030524358
000010 00 c4 0e 3d f2 dd 72 3d b6 56 13 3d 44 e3 e3 bc
       0.03485489 0.059293695 0.035971366 -0.02781833
000020 a2 8b 05 bc 4f 51 09 3c d6 c4 77 bd 60 44 39 bd
       -0.008150967 0.008381202 -0.06049045 -0.045231223
000030 10 96 cb bc 1f e7 b7 3c ef a9 80 3b 02 88 33 3d
       -0.024851829 0.022449074 0.0039265077 0.04383088
000040 14 10 0d bd 54 63 bf 3c c2 05 ce 3c 28 10 f7 3c
       -0.03443916 0.023362793 0.02514923 0.030159071
000050 ba c0 61 3a db 14 65 3c cf 1a 66 bb 90 6c e9 bc
       0.00086117873 0.013982023 -0.0035111194 -0.02849415
000060 ba bf 5d bd 33 e7 8e bc 71 55 dd bc c8 8a 44 3c
       -0.054137923 -0.017444229 -0.02701828 0.011995979
000070 dd d2 16 bc 68 ea f6 bc 6c 52 04 bd 00 0e 1f bd
       -0.009205547 -0.03014107 -0.032305166 -0.03883171
000080 b0 53 29 bc 56 db 2a bc 10 22 b2 bc 8c 8f f8 bc
       -0.010334894 -0.01042827 -0.021744758 -0.030341886
000090 30 43 3a bd ee 95 6d bd 38 49 38 3d 0e ac 3c bd
       -0.04547423 -0.058004312 0.0449917 -0.04606252
0000a0 63 2c 39 3d 60 dd 5b 3d 44 ca dd 3c f0 9d 0a bd
       0.045208346 0.053677917 0.027073987 -0.033842027
0000b0 d8 c5 61 bd 50 75 f6 bb 9a b9 62 bd 1d d2 59 bd
       -0.05512032 -0.007521309 -0.055352785 -0.053178895
0000c0 cc 98 51 3d 3a 47 52 3d 59 79 92 3c 94 f2 25 bd
       0.05117111 0.05133746 0.017880129 -0.040514544
0000d0 ce 4e 2e bd 82 ec fa 3c 60 8e 6c bb a8 11 31 bc
       -0.042555623 0.030630354 -0.0036095604 -0.010807432
0000e0 e8 b3 a0 3c ba c9 e6 bc 51 ee 57 3c 18 33 80 bc
       0.019617036 -0.028172363 0.013179378 -0.015649363
0000f0 b2 a8 3f bd c1 39 ea bc 60 c1 b7 3b 8b 06 39 3d
       -0.04679174 -0.028591992 0.005607769 0.045172255
000100 f8 dd 66 bd 5b 86 74 3d f8 65 58 bc 00 f0 29 3a
       -0.05636403 0.059698444 -0.013207905 0.0006482601
000110 2a b5 3e 3d b3 ee 17 bd 4a 62 2c bd 2e db 06 3d
       0.04655949 -0.037092876 -0.042085923 0.03292387
000120 db 44 0b 3d 28 51 5f 3d 60 67 78 3b d8 f1 0e 3d
       0.034001213 0.054520756 0.0037903413 0.03489861
000130 6e af 42 3d ec 51 66 bd 72 07 0f 3d 8c 29 79 3d
       0.047530584 -0.05623047 0.03491921 0.060830638
000140 fa b9 63 bd 6c 54 7b 3d 8a ff 20 3d 7b bd d4 bb
       -0.055597283 0.061359808 0.0393062 -0.0064923144
000150 ec d7 b6 bc 2a 52 84 bd 00 b4 70 3d 6d ab 94 3c
       -0.022319756 -0.06460984 0.05876541 0.018148148
000160 26 39 f7 bc ca 1f 28 3d 2c 54 92 bc cc 76 5b bd
       -0.030178618 0.04104594 -0.017862402 -0.05358009
000170 0e 2a 37 bd f8 ee 03 3d d2 6a 0e 3c c8 1a ab 3b
       -0.04471784 0.03221032 0.00869246 0.0052216984
000180 f0 c3 2a 3d 4a a3 27 3d 00 56 6a ba dc 4e 68 bd
       0.041690767 0.04092721 -0.00089392066 -0.05671583
000190 08 67 bc bc 8e fd 72 bd 08 7e d2 3c 2d c7 3b bd
       -0.022998348 -0.05932384 0.025694862 -0.045844246
0001a0 d0 98 8e bc 46 0b 00 3c 06 0b 66 bd 40 ad 73 3b
       -0.017406851 0.007815188 -0.056162857 0.0037182122
0001b0 97 6d 8d bc 16 d4 73 3d 32 fc 7a bd 1c 9d 77 bd
       -0.01726417 0.059528433 -0.06127567 -0.060452566
0001c0 8d 37 e5 3c 1b 82 87 3c a8 e1 23 bd d2 1d e0 3c
       0.02798059 0.016541531 -0.040010124 0.02735797
0001d0 8a 8e 53 bd a0 a5 19 3b 6e da 7b bd db 7f 2e bd
       -0.051649608 0.0023444667 -0.061487608 -0.0426024
0001e0 ec 3a d2 3c 70 6f 09 bc 00 ac e4 3b 0e 9e 43 bd
       0.025662862 -0.008388385 0.006978512 -0.047758155
0001f0 54 38 63 3d 0d 1a f8 bc a0 88 5a 3b c8 1d 47 3c
       0.05547364 -0.03028586 0.0033345595 0.0121530965
000200 bd 01 47 bd c4 53 82 3c c6 e7 11 3d 36 91 44 3d
       -0.048585642 0.015909083 0.035621427 0.047990046
000210 7c 6c a9 3c 40 64 ee ba 6c 51 c0 3c d8 d8 64 bd
       0.020681612 -0.0018187836 0.023476325 -0.05587086
000220 1d a1 04 bd 48 79 b0 bc 72 81 d4 bc e0 50 2a 3d
       -0.032380212 -0.021542206 -0.02594063 0.041581035
000230 aa 02 98 3c 8a 30 36 bc bd c1 39 bd 4e 1b 10 bb
       0.018555958 -0.011119971 -0.04535078 -0.002198893
000240 02 49 b5 bc cc 44 61 3d b8 ea a2 3c ce 23 4c 3d
       -0.02212954 0.05499725 0.019887313 0.049838834
000250 42 ee 6b bd 8b 30 03 3d 64 71 4a 3d 40 98 dc 3b
       -0.057600267 0.032028716 0.049424544 0.006732017
000260 b0 57 b0 3b 0a 05 19 3d 02 88 42 bd 1b f9 f0 3c
       0.005381547 0.03735832 -0.04749299 0.029415658
000270 c1 a8 d1 bc c2 8b 2b bd a0 38 5c 3b 60 04 30 3d
       -0.025593163 -0.04188133 0.0033603087 0.042972922
000280 6c 81 f8 3c d1 2e ac 3c e5 91 78 bb f8 a4 4d bd
       0.03033515 0.021018418 -0.0037928757 -0.050206155
000290 7c 6b 88 3c c0 18 39 bd 80 e8 41 3c 60 b2 dd bc
       0.016652815 -0.04518962 0.0118352175 -0.027062595
0002a0 c8 ca 99 bc 65 9d 85 bc f0 5d 78 bd e8 b0 3a bd
       -0.018773451 -0.016310403 -0.06063646 -0.045578867
0002b0 1e 46 4b bd f3 f1 7f 3b a4 8d ef bc 92 b7 04 3d
       -0.049627416 0.0039054125 -0.029242344 0.03240163
0002c0 b0 57 2e 3c 40 87 97 bc 88 2c 8d 3c e5 41 cb bc
       0.0106410235 -0.01849711 0.017233148 -0.024811694
0002d0 a2 57 52 3d 84 56 6a bd 80 b8 53 3c 28 a5 7f bd
       0.051353104 -0.057211414 0.012922406 -0.062413365
0002e0 99 54 64 3d ab 16 63 bd 38 16 77 bd 52 0c 70 3d
       0.05574474 -0.05544154 -0.060323924 0.0586055
0002f0 e2 ca 45 bd 78 ab bf bc b1 a9 39 3d 22 6b 67 3d
       -0.048289187 -0.023397192 0.045327846 0.056498654
000300 d0 70 4c bd 33 3d ba bc 16 95 1a bd 7f a1 b8 3c
       -0.049912274 -0.02273426 -0.037739836 0.022537945
000310 56 dc 27 3d d0 60 2c 3c 0a a0 28 3c 30 1e f9 3c
       0.040981613 0.010521129 0.010292063 0.030409902
000320 3e 74 25 3d c3 e8 4b 3c 24 08 99 3c af 01 6f 3c
       0.04039406 0.012445631 0.01868064 0.014587804
000330 80 d6 f2 bc 45 c9 04 bd 68 04 e3 bb bc 9a fb bc
       -0.029643297 -0.032418508 -0.0069280155 -0.030713432
000340 94 ba d3 bc af c4 1b 3d 44 3d 4f 3d 00 22 bd bc
       -0.025845803 0.03802937 0.050595537 -0.023087502
000350 90 1b a3 3c fa 4d 4e bd 90 b2 b9 bb 60 8b d7 3c
       0.019910604 -0.050367333 -0.0056670383 0.026311576
000360 78 d1 15 bd 66 63 06 bd 1e c0 c7 bc 36 6e 1e bd
       -0.036576718 -0.032809637 -0.0243836 -0.038679324
000370 ee 1b ac 3c 98 25 19 bd fb 71 a3 3c cf 04 c3 3c
       0.021009412 -0.037389368 0.019951811 0.023806004
000380 be 72 80 bd 8c d5 33 bd 18 ea 1c 3c 56 97 6d 3d
       -0.06271885 -0.043904826 0.009577297 0.058005653
000390 96 26 15 3d 4c 67 8c 3b 0f 7b e4 bc 96 9e f3 3c
       0.03641375 0.004284775 -0.02789071 0.029738706
0003a0 12 31 31 3d 72 b9 1c 3c 6c 91 19 3d 6c 6a 33 bd
       0.043259688 0.009565698 0.0374922 -0.043802664
0003b0 b4 e8 90 3c 90 02 4e 3d 04 84 ad 3c a8 06 bb bc
       0.017689086 0.050295413 0.021181114 -0.022830322
0003c0 26 ee 6e bd d3 2b 51 bd c0 c5 21 3d f6 ac c2 3c
       -0.058332585 -0.051067185 0.03949523 0.023764115
0003d0 d0 3e 9b 3b ba df 6d bd 65 7d 72 bd 29 f4 74 bd
       0.0047377124 -0.05807469 -0.059201617 -0.05980316
0003e0 3d 1c 27 bc af ee 12 bd 24 15 00 bd d0 41 0e 3d
       -0.010199604 -0.035872158 -0.03127016 0.034730732
0003f0 7c 05 48 3d 55 59 38 bd 35 8d 75 3c 00 a7 b4 bb
       0.048833355 -0.04500707 0.01498728 -0.005513072

linear1.bias f4 [150]
000000 17 ae 5b bd 39 71 b2 3c 05 ed 24 3c 57 80 85 bb
       -0.053632822 0.021782504 0.0100662755 -0.004074137
000010 de b3 ff bc 30 85 1b 3d cd 20 83 bd 7a 7d a4 bc
       -0.031213697 0.037968814 -0.06402741 -0.020079363
000020 a6 6e 28 bd c0 8c 81 3b 17 1e 0b 3d 76 31 86 3d
       -0.041121148 0.0039535463 0.033964243 0.06552403
000030 30 d3 d2 3c f3 5c 0a bd d9 67 f9 bc 38 77 a2 bc
       0.025735468 -0.03378005 -0.030445026 -0.019832239
000040 c5 83 14 bc dc 9a 7b 3d 1c be 28 3d b1 24 08 bd
       -0.009064619 0.061426982 0.041196927 -0.033238117
000050 72 85 37 3d c8 64 3d bd 36 95 3c bc e6 9d 30 3d
       0.044804998 -0.04623869 -0.011510184 0.043119334
000060 f8 73 34 3d 13 9a e3 3c eb 85 3e bc 66 df 09 bd
       0.04405591 0.02778343 -0.011628608 -0.033660315
000070 b8 8c 71 bd a5 be f9 bc a9 9f e9 bc 78 7d 2d bd
       -0.05897209 -0.030486414 -0.028518515 -0.042355984
000080 76 1a 25 3d 11 c9 00 bd f2 f6 07 3c c0 58 d7 bb
       0.04030844 -0.031441752 0.008298622 -0.006571859
000090 05 9b 69 3d e0 1e 89 3b 44 8b a9 3c 5e b7 6c bc
       0.057032604 0.004184589 0.02069629 -0.014448015
0000a0 ae e0 29 3c e9 c5 08 3d 06 dd 24 bd 13 04 62 bc
       0.010368509 0.033391867 -0.040249847 -0.013794917
0000b0 25 3f a8 bc 8d 75 60 3d ed 8a c9 bc b8 8d dd 3c
       -0.020537922 0.054799605 -0.024602378 0.027045116
0000c0 b0 73 a7 bc ca 9c 00 3c 85 bb 3b 3c 9c 7c 0e 3d
       -0.020440906 0.007849881 0.011458282 0.034786806
0000d0 19 cd 71 3d 49 0c 0c 3c ec 10 0d bd 37 31 d4 3b
       0.059033487 0.008547851 -0.034439966 0.0064755934
0000e0 6e ea 2e 3d 7c 9b cc 3c c2 3a 51 bc b2 b6 2f 3d
       0.04270404 0.024976484 -0.012770357 0.04289884
0000f0 1e c5 9f 3c da 50 1e 3c 13 a6 06 bd c7 90 c0 bc
       0.019503172 0.009662831 -0.032873224 -0.023506535
000100 bb 1b 39 bb 8e f0 00 3d 3a 49 b1 bb ea ed 61 3b
       -0.0028245288 0.03147941 -0.0054103406 0.0034474083
000110 e2 0f 4c bd 2a a9 68 bd 5a a0 b2 bc ad 04 e0 bc
       -0.049819835 -0.056801952 -0.021804977 -0.02734598
000120 e1 68 2d 3d 8b 70 39 bc 19 ca bc bc b3 76 c6 ba
       0.04233635 -0.011318336 -0.023045586 -0.0015141576
000130 b8 7b f5 bc 7b 55 0c bd fa 86 55 3b 57 38 38 bd
       -0.02996622 -0.034261208 0.0032581673 -0.044975605
000140 3a 04 ae 3c 14 3d 4e bc de 5a 7c bc 89 41 c4 3c
       0.02124225 -0.012587804 -0.015402524 0.02395703
000150 40 63 17 3d e5 13 5d bd ca 16 62 3d 6b 7f 5c bd
       0.036959887 -0.05397405 0.055197515 -0.053832453
000160 1d 5f 73 bb ab 78 57 3c ce 82 b0 bc c2 a3 f8 3c
       -0.003713555 0.013151328 -0.021546748 0.030351523
000170 69 7d d2 3c 7d 5e 18 3b 79 ad 57 bc 21 af 12 bd
       0.025694566 0.0023249679 -0.013163918 -0.035811547
000180 dd 75 82 bd 33 ad 5a bc 6b 5c 38 bd 3c 1b e4 bc
       -0.06370137 -0.013346958 -0.04501001 -0.027845018
000190 2e 95 1b bd 1b a9 ef 3c 02 82 39 bd 0c bb 82 bb
       -0.037984066 0.02925544 -0.04529 -0.003989583
0001a0 7a 2b 9e 3b e5 c5 3b bd 18 ba f7 bc 14 d4 19 bd
       0.00482696 -0.045843024 -0.030240104 -0.03755577
0001b0 8c 73 81 3d 03 c6 81 3d a2 a7 3c bd f7 f1 c3 3c
       0.06320867 0.06336596 -0.046058305 0.023919089
0001c0 da 8a 02 bc 79 04 ae bc 66 5c 3b bd 3d e4 5f bb
       -0.007967675 -0.021242367 -0.045742415 -0.003416314
0001d0 78 c0 a4 bc ed 80 39 bd 85 9e b3 3b 6a 3e e9 3c
       -0.020111308 -0.04528897 0.0054815435 0.028472144
0001e0 74 61 8b 3d f7 eb 0d 3d d1 c6 40 bd 8c ab c1 bb
       0.06805697 0.03464886 -0.047064606 -0.0059103426
0001f0 0c b4 d8 bc 8f e3 eb bb 0e e2 9c 3c 9a be 8a 3d
       -0.02645304 -0.007198758 0.01915076 0.067746356
000200 9a 4c 3f bc 8c 9a 2e bd 2a b3 f3 bc 74 e7 55 3d
       -0.011675978 -0.042627856 -0.029748518 0.052222684
000210 53 c4 44 3d 4f 2a 96 bc 3c 67 bd 3c 63 ee a6 3c
       0.048038792 -0.018330721 0.023120515 0.020377344
000220 87 4d a3 bb 7c a2 81 3d 5a d4 9f bc 22 46 0b bd
       -0.004983607 0.063298196 -0.019510437 -0.03400243
000230 46 05 d4 3b 0a 8b 12 3c 1e d9 13 3d f6 c1 ab bc
       0.006470355 0.008944282 0.03609573 -0.020966511
000240 7a 30 52 3d c1 1c b1 bb 68 50 9f 3b ff 99 2a 3c
       0.051315762 -0.005405039 0.00486188 0.010412692
000250 06 66 e5 ba 57 91 60 3d
       -0.0017501719 0.054826107

linear2.weight f4 [52, 150]
000000 f1 80 6b bd 89 22 35 bd 4b b0 a7 3d ad de 0a 3d
       -0.057496015 -0.04422239 0.08187922 0.033903766
000010 c1 fa 16 3d 2e dc 90 bd a8 33 2f bd e3 87 82 3d
       0.03686023 -0.07073246 -0.042773873 0.063735746
000020 d3 29 73 3c be 6a 7d 3c b7 8b a4 3d 2b 38 9c 3d
       0.014841515 0.015467344 0.08034461 0.07627901
000030 e8 c3 85 3d 65 0a a6 bd b0 0e fc bc c5 19 60 3d
       0.06531507 -0.08107451 -0.030768722 0.054712076
000040 2a b8 79 bd 31 b3 7e bd 24 39 e7 bc eb f3 82 3d
       -0.06096665 -0.06218261 -0.028225489 0.0639418
000050 a6 14 4e 3d 4c 3a 8e bd 36 3e c8 bc bf b1 87 3d
       0.05031266 -0.06944713 -0.024443727 0.06625699
000060 ba 4a 63 bd 1f e4 ab 3d 26 73 f4 3c 14 ad cd 3b
       -0.055491187 0.0839312 0.029840063 0.006276736
000070 e2 b7 d9 3c 0c b1 80 3d e0 18 25 bd f5 61 8e bd
       0.02657694 0.06283769 -0.040306926 -0.069522776
000080 c4 ec 23 39 5e e1 cc 3b 0f 54 9b 3c fc 2c 9c 3d
       0.00015633093 0.006252452 0.01896098 0.076257676
000090 fc 60 07 3b 42 cd 3d bd fe 6e a4 bc b6 85 96 3d
       0.0020657172 -0.046338327 -0.020072456 0.07349722
0000a0 08 22 14 3d f0 0b 1b 3d 3e 7d 51 bd 19 57 5c 3c
       0.036165267 0.03785318 -0.05114483 0.0134485
0000b0 74 07 57 3d 81 1a 06 3d 29 3e a1 bd af ca 1c 3d
       0.052497342 0.03274012 -0.07873184 0.03827923
0000c0 34 7c 14 bd f6 ce 3d bd fd 94 14 bc b8 31 91 bd
       -0.03625126 -0.04633995 -0.009068725 -0.07089561
0000d0 36 3c 2b bc a0 b2 60 bc 45 91 33 bd c0 6d de 3c
       -0.010451367 -0.0137144625 -0.04383971 0.027151942
0000e0 f0 25 42 bd 64 cd 87 bb 26 b3 c4 39 24 e6 f2 39
       -0.04739946 -0.0041443575 0.0003751751 0.00046329305
0000f0 70 ed 00 3d ff 7f 44 3c 04 79 85 3d 44 d4 5d bc
       0.031476438 0.011993407 0.065172225 -0.013539378
000100 cc 45 61 3d 22 f6 9d bc 03 6f 28 3d 71 82 80 bc
       0.054998204 -0.019282404 0.041121494 -0.0156872
000110 39 23 42 3c 3f b0 09 bd 21 6c 01 bd b7 89 b0 bd
       0.011849218 -0.033615347 -0.03159726 -0.08620017
000120 37 9c eb bb 41 82 1c bc 27 71 1e bd 88 3f a4 bd
       -0.007190253 -0.009552539 -0.03868213 -0.0801993
000130 47 66 79 3d b2 e3 7a bd c1 14 8b 3d cc 0c a7 3c
       0.060888555 -0.061252303 0.06791068 0.020391844
000140 58 d1 b4 3c d8 37 94 bd 25 b8 9f bd bc 29 48 bd
       0.02207248 -0.07237214 -0.07798795 -0.048867926
000150 a3 36 70 3d 9d cf 86 bb ea da 0e 3a 62 12 3c 3d
       0.058645856 -0.004114105 0.0005449491 0.04591597
000160 1b a2 5c 3d ea 2f 29 bc 57 d6 89 3d 91 11 80 bd
       0.053865533 -0.010326365 0.06730335 -0.062533505
000170 a3 36 94 3d 1e c5 9b 3d bd 8b 19 bd 11 a3 1f bd
       0.072369836 0.076059565 -0.03748678 -0.03897387
000180 1c ee 1d bd 80 25 73 3c 16 b7 86 3d b6 da 63 bc
       -0.038557157 0.014840484 0.065778896 -0.013907125
000190 2b a7 90 3d 5e 78 c3 bc 33 32 a5 3c c2 99 82 bd
       0.07063135 -0.023861106 0.020165538 -0.06376983
0001a0 ea 6e 4d 3d 68 01 51 bb 8c e8 70 3b b4 06 64 3d
       0.050154604 -0.0031891707 0.0036759702 0.055670455
0001b0 22 4d 78 bd 34 dc d8 3b 71 4c 41 bd 70 64 ab 3d
       -0.060620435 0.006618047 -0.04719204 0.08368766
0001c0 19 1c 9c 3d 81 2e 20 3c d0 7c 20 bd 48 4d 12 bd
       0.07622547 0.009776712 -0.03918153 -0.035718232
0001d0 11 13 ba 3c a6 31 ce 3c 2f 46 3f 3d f8 99 62 bd
       0.02271417 0.025170159 0.04669779 -0.055322617
0001e0 4e 85 43 bd df 3e 83 3a c6 61 eb bb f8 47 fb bc
       -0.04773455 0.0010013244 -0.0071832864 -0.030673966
0001f0 18 27 ab bd 90 be 95 3d 1e f6 ae 3d 7f 67 1f 3c
       -0.08357066 0.073117375 0.08543037 0.009729265
000200 5e b6 63 bd 53 bb e9 bc 00 09 64 bb 29 29 73 3d
       -0.05559384 -0.028531706 -0.0034795403 0.059365425
000210 3b e6 32 3b 64 44 c0 3c 27 ed 0a 3c ad 0f 95 3c
       0.0027297873 0.023470111 0.008479393 0.018195951
000220 e6 02 06 3c 59 7c bf bb fd 99 62 bd d1 c2 97 bd
       0.008179402 -0.005843681 -0.055322636 -0.07410205
000230 c3 3d 0d bd a0 1d cf ba 5d 72 3a bc a0 01 a3 bd
       -0.03448273 -0.0015801676 -0.011379805 -0.07959294
000240 e1 61 5b 3d d7 45 b9 3c 3a db b2 3d bd 41 94 bd
       0.05356014 0.02261631 0.087332204 -0.07239101
000250 48 c8 69 bd bc 6d e8 3c a8 65 8f 3d e3 ba 9a 3d
       -0.05707577 0.028372638 0.07001811 0.07555177
000260 47 a3 20 bd bc 6e 9e 3d b2 59 8b bd f9 fc 88 bd
       -0.039218213 0.07735965 -0.068042174 -0.06688876
000270 ab e2 a8 bd 5c e3 9c 3b df af 9d bd d1 cc 68 3d
       -0.082463585 0.0047878455 -0.076995604 0.056835953
000280 b2 c7 0f 3c fd c4 65 bc f2 ca 08 bd c3 db 3b bd
       0.008775638 -0.014024016 -0.03339667 -0.045863878
000290 a9 d1 aa bd c8 c5 8c bb bc 59 bb bb f8 aa 87 3d
       -0.08340771 -0.0042960383 -0.0057174843 0.066244066
0002a0 f2 79 72 3d 0c 04 17 bd ff d6 94 3d ff cc 99 bd
       0.059198327 -0.036869094 0.0726757 -0.07509803
0002b0 eb 9b 01 3d f3 6d 6b bd 5d 47 af 3d 61 92 46 3d
       0.031642836 -0.057477903 0.08558533 0.04847944
0002c0 d6 c3 24 bb 89 4b 96 3d cf 7e de bb 97 c5 b2 bd
       -0.0025141141 0.07338626 -0.006790019 -0.087290935
0002d0 d2 7d af bd 4a 67 65 bb 59 95 88 bd 13 39 92 3d
       -0.0856892 -0.0035004192 -0.06669111 0.07139792
0002e0 49 ab de 3b fd ae 7b 3d 86 f0 5a bd 14 8e 9b bd
       0.006795321 0.06144618 -0.053452037 -0.075954586
0002f0 a8 6b cc 3c 4e 5f 12 3d 4e 84 5f bd 23 b3 1d bd
       0.024953678 0.03573542 -0.054569535 -0.038500916
000300 57 34 6a 3b df 9e c0 bb 6c 62 8d bd 64 57 ad 3d
       0.0035736763 -0.005878314 -0.06903538 0.08463934
000310 a3 6e 9c bd 2c 79 41 bd 06 99 b0 bd 8c e9 88 3d
       -0.0763829 -0.0472347 -0.08622937 0.066851705
000320 9e 8f 2d 3d 6f f3 ec bc 5e bd 5e bc 00 da 07 3d
       0.042373292 -0.028924672 -0.013594953 0.033166885
000330 bf 1a 45 3d 17 88 67 bd 97 12 00 bd ab 77 9a 3d
       0.04812121 -0.05652627 -0.03126773 0.07542356
000340 2c 9b 93 bd 99 59 94 3d b0 dd 2b 3d 92 04 84 3d
       -0.07207331 0.07243652 0.041959465 0.06446184
000350 c9 d7 48 3c 61 41 7d bd 51 4d 09 3d 49 a0 82 bb
       0.012258478 -0.06182993 0.033521 -0.0039863926
000360 50 e5 d0 3c 43 2f 91 3d 64 a1 33 bd 6e 08 89 bc
       0.02549997 0.070890926 -0.043855086 -0.016727652
000370 19 33 8d 3b 7c e3 7e bd 56 9e 92 bc fa 3a 8e bd
       0.00430907 -0.062228665 -0.017897766 -0.06944843
000380 4d 4e 17 3d 76 3d 8e bc 26 12 68 3d a1 00 4f bc
       0.036939908 -0.017363291 0.056657933 -0.012634427
000390 04 36 81 bd 7a 70 72 bd 62 5f 9d 3d 15 d9 c4 3c
       -0.06309131 -0.059189297 0.076842085 0.024029294
0003a0 42 3f d2 bc 00 64 e7 bb c0 4d 42 3d 0d c2 52 3d
       -0.02566493 -0.0070614815 0.04743743 0.051454592
0003b0 0e ff ec 3c b4 8f da 3c b7 e5 97 bd ba 60 83 bd
       0.028930213 0.026679851 -0.074168615 -0.064149335
0003c0 0a 9f eb 3b 65 53 03 bd bc e3 3e 3c 47 e4 ad 39
       0.00719059 -0.032061953 0.011650976 0.0003316721
0003d0 ee 5a b1 bc ab 64 99 3d 6b 65 37 bd f5 71 7e bd
       -0.021649804 0.07489904 -0.044774454 -0.062120397
0003e0 ce 8c 86 bc c2 14 ae bd 01 38 38 3d 52 ed 87 bd
       -0.016424563 -0.08500053 0.044975284 -0.06637062
0003f0 a2 67 79 bd 1b 32 79 bd fb f1 33 bd db 69 8a bd
       -0.060889848 -0.0608388 -0.043931942 -0.067584716

linear2.bias f4 [52]
000000 ba 10 2d bc dc 7b f2 bc 6b b8 20 3d 1f 17 87 3b
       -0.01056307 -0.029600076 0.039238375 0.0041226293
000010 98 ce 3e bd 13 8e a9 3c f8 63 9e 3d 28 72 6b 3b
       -0.046583742 0.02069763 0.07733911 0.0035926197
000020 ac 7f 4c bd e9 d2 a6 bc c2 bd 49 bd 75 d2 61 3d
       -0.049926445 -0.020364242 -0.049253233 0.055132348
000030 a6 e0 75 bd 33 a6 74 bd e8 87 09 3c 9d dd 4b 3d
       -0.060028695 -0.059728812 0.008394219 0.049771894
000040 a9 ef d8 3c 38 9d 99 3d 83 8d 30 3d 35 18 87 bd
       0.026481466 0.0750069 0.043103706 -0.06596414
000050 4c ab a8 3a ca 43 9e 3d db f5 10 bd 55 88 d7 bc
       0.0012868433 0.077277735 -0.035390716 -0.026310125
000060 de 81 0a 3b 31 8d 87 3d 7f fe 61 3c cb f8 1d 3d
       0.0021134536 0.06618727 0.013793587 0.038567346
000070 54 17 ba bb f3 99 9a 3d 85 52 94 3d 68 6d 57 3d
       -0.0056790505 0.07548895 0.07242302 0.052594572
000080 93 f3 80 bd af 02 7e 3d 13 3f 8f bd 38 b9 54 3d
       -0.06296458 0.062014278 -0.06994452 0.05193445
000090 f9 5e 52 3d 61 7d 0b bc c2 0e 65 3d 5a 24 94 3d
       0.051360104 -0.008513779 0.055922277 0.07233496
0000a0 57 bb 0b 3d 91 1d 4b 3d cf 69 2c bd 06 35 99 3c
       0.034114208 0.049588744 -0.042093094 0.018702041
0000b0 ea 98 9f 3d 10 19 2f bd e7 76 4d bd 0f 59 84 3c
       0.07792838 -0.04274851 -0.050162222 0.016155748
0000c0 92 46 04 3d 7e ab 7f bb 14 2e 21 bd 8f f1 58 3d
       0.032293864 -0.003901213 -0.039350584 0.052964743
