audio2face/checkpoint/model_epochs_1.pt (torch, 187720 bytes, 4 tensors)

linear1.weight f4 [150, 256]
00000000: 0e19 7a3d 10ff f33c 884e f0bc 380e fa3c
00000010: c5fb f63c 3fbe 5f3d b656 133d ed21 05bd
00000020: fb2b 53bc fd97 723b d6c4 77bd ee66 4cbd
00000030: 1096 cbbc 6d02 933c 0575 48ba b223 203d
00000040: 1410 0dbd 8743 993c fc39 a93c 2810 f73c
00000050: d2d4 7abb 1a55 1a3c 5c66 06bc 906c e9bc
00000060: babf 5dbd bd33 b5bc 0af5 01bd c88a 443c
00000070: 2745 63bc 68ea f6bc 6c52 04bd 1275 32bd
00000080: b053 29bc d55e 77bc 1022 b2bc edf7 0ebd
00000090: 3043 3abd ee95 6dbd 3849 383d 0eac 3cbd
000000a0: b119 263d 60dd 5b3d 44ca dd3c f09d 0abd
000000b0: d8c5 61bd 5075 f6bb 9ab9 62bd 4602 6dbd
000000c0: cc98 513d 3a47 523d 114c 583c 94f2 25bd
000000d0: 556b 41bd 3184 d53c 608e 6cbb a811 31bc
000000e0: 987c 743c 9aa3 06bd 9c82 0a3c 0e18 a6bc
000000f0: b2a8 3fbd 78a2 08bd 60c1 b73b fac5 253d
00000100: 8b06 7abd 99a7 603d f865 58bc 00f0 293a
00000110: 2ab5 3e3d 6715 2bbd c970 3fbd 3bce e83c
00000120: dfbf ef3c 2851 5f3d 6067 783b d8f1 0e3d
00000130: 6eaf 423d ec51 66bd 7207 0f3d 8c29 793d
00000140: fab9 63bd 6c54 7b3d 8aff 203d 9fd4 36bc
00000150: ecd7 b6bc 55d9 8dbd 00b4 703d d2c6 5d3c
00000160: eac2 0ebd ca1f 283d f036 b9bc cc76 5bbd
00000170: 0e2a 37bd cac6 e03c 600b 843b 475e 893a
00000180: f0c3 2a3d 4aa3 273d 0056 6aba dc4e 68bd
00000190: 0867 bcbc 622e 83bd 087e d23c f7e6 4ebd
000001a0: d098 8ebc ed6e 4d3b 6821 79bd 40ad 733b
000001b0: 15cc b3bc 44aa 603d 32fc 7abd 9e6f 85bd
000001c0: 17a7 be3c 531a 423c a8e1 23bd b1bd b93c
000001d0: 8a8e 53bd a0a5 193b 6eda 7bbd 14ac 41bd
000001e0: ec3a d23c 706f 09bc 00ac e43b 0e9e 43bd
000001f0: 500e 503d 1657 0ebd a088 5a3b c81d 473c
00000200: 2323 5abd c453 823c c6e7 113d 3d58 313d
00000210: 305f 833c 4064 eeba 6c51 c03c d8d8 64bd
00000220: 544b 19bd 4879 b0bc cefb fabc 671a 173d
00000230: 0785 633c 37fc 81bc 8cc2 4cbd ccc9 e0bb
00000240: 237a dbbc cc44 613d b8ea a23c ce23 4c3d
00000250: 42ee 6bbd 22b3 df3c c856 373d 4098 dc3b
00000260: b057 b03b 2b21 063d 0288 42bd 4227 cb3c
00000270: 35a8 f7bc 26bc 3ebd a038 5c3b 6004 303d
00000280: 6c81 f83c b8ae 853c db23 0bbc f8a4 4dbd
00000290: e0f1 433c c018 39bd 80e8 413c 97d8 01bd
000002a0: c8ca 99bc 78cc abbc f05d 78bd 39d7 4dbd
000002b0: e26c 5ebd 469c 53ba a48d efbc 92b7 043d
000002c0: aef8 c23b 4cf1 bdbc 882c 8d3c 86a2 f2bc
000002d0: a257 523d 8456 6abd 80b8 533c 28a5 7fbd
000002e0: 6c6f 513d c83e 76bd 6124 85bd c1c5 5c3d
000002f0: 09f6 58bd 78ab bfbc 779d 263d 9c47 543d
00000300: d070 4cbd 4684 e0bc 1695 1abd b533 923c
00000310: 56dc 273d d060 2c3c 9866 b73b e4f2 d23c
00000320: 3e74 253d 240c fe3b 4791 653c 84c7 233c
00000330: 80d6 f2bc 13e9 17bd 9c86 3ebc bc9a fbbc
00000340: 94ba d3bc 69a1 083d 443d 4f3d 0022 bdbc
00000350: 901b a33c fa4d 4ebd 90b2 b9bb 608b d73c
00000360: b4d0 28bd 6663 06bd 3518 eebc 366e 1ebd
00000370: 5e3b 863c 1905 2cbd 94e6 7c3c b697 9c3c
00000380: 20fb 89bd 8cd5 33bd 18ea 1c3c ecda 593d
00000390: 9626 153d d6d9 bdb9 9832 03bd 3241 cd3c
000003a0: 1231 313d c67a a13b 6c91 193d 6c6a 33bd
000003b0: b4e8 903c 9002 4e3d 5b33 873c a806 bbbc
000003c0: 26ee 6ebd 6539 64bd c0c5 213d cd9c 9c3c
000003d0: d03e 9b3b badf 6dbd 12d8 82bd 609b 72bd
000003e0: cca7 73bc 6925 26bd 2415 00bd d041 0e3d
000003f0: 7c05 483d 6578 4bbd 0d88 293c 48df 26bc
0.06105905 0.02978471 -0.029334322 0.030524358 0.03014935 0.054624792 0.035971366 -0.032503057
-0.012888904 0.0037016862 -0.06049045 -0.04990285 -0.024851829 0.017945493 -0.0007646832 0.03909654
-0.03443916 0.018708957 0.020657532 0.030159071 -0.0038273823 0.009419704 -0.008203115 -0.02849415
-0.054137923 -0.022119397 -0.031727828 0.011995979 -0.013871468 -0.03014107 -0.032305166 -0.04356868
-0.010334894 -0.015098293 -0.021744758 -0.03490441 -0.04547423 -0.058004312 0.0449917 -0.04606252
0.040551845 0.053677917 0.027073987 -0.033842027 -0.05512032 -0.007521309 -0.055352785 -0.057863496
0.05117111 0.05133746 0.013201729 -0.040514544 -0.0472215 0.02606401 -0.0036095604 -0.010807432
0.014922284 -0.032870866 0.008453991 -0.020275142 -0.04679174 -0.033358067 0.005607769 0.04047201
-0.061041396 0.054847334 -0.013207905 0.0006482601 0.04655949 -0.041768458 -0.04673842 0.02841865
0.029266296 0.054520756 0.0037903413 0.03489861 0.047530584 -0.05623047 0.03491921 0.060830638
-0.055597283 0.061359808 0.0393062 -0.011159091 -0.022319756 -0.069262184 0.05876541 0.013536172
-0.034853853 0.04104594 -0.022609204 -0.05358009 -0.04471784 0.02743854 0.0040296763 0.0010480367
0.041690767 0.04092721 -0.00089392066 -0.05671583 -0.022998348 -0.06405331 0.025694862 -0.050513234
-0.017406851 0.0031346634 -0.060822874 0.0037182122 -0.0219479 0.054849878 -0.06127567 -0.0651543
0.023273034 0.0118470965 -0.040010124 0.02267346 -0.051649608 0.0023444667 -0.061487608 -0.047283247
0.025662862 -0.008388385 0.006978512 -0.047758155 0.0507949 -0.03475102 0.0033345595 0.0121530965
-0.053256165 0.015909083 0.035621427 0.04329704 0.0160366 -0.0018187836 0.023476325 -0.05587086
-0.037425354 -0.021542206 -0.030637648 0.036890414 0.013886697 -0.015867336 -0.04999022 -0.0068599936
-0.026791638 0.05499725 0.019887313 0.049838834 -0.057600267 0.027307097 0.044760495 0.006732017
0.005381547 0.032746475 -0.04749299 0.024798993 -0.030231575 -0.04656615 0.0033603087 0.042972922
0.03033515 0.016318664 -0.008492435 -0.050206155 0.011959523 -0.04518962 0.0118352175 -0.031700697
-0.018773451 -0.020971522 -0.06063646 -0.05025408 -0.054303057 -0.0008072298 -0.029242344 0.03240163
0.005950055 -0.023186348 0.017233148 -0.029618513 0.051353104 -0.057211414 0.012922406 -0.062413365
0.05113165 -0.060118467 -0.06501079 0.05389953 -0.052969012 -0.023397192 0.040677514 0.051826105
-0.049912274 -0.027406823 -0.037739836 0.017846921 0.040981613 0.010521129 0.005596947 0.025750585
0.04039406 0.007752912 0.014011688 0.009996299 -0.029643297 -0.03708751 -0.011628773 -0.030713432
-0.025845803 0.033357058 0.050595537 -0.023087502 0.019910604 -0.050367333 -0.0056670383 0.026311576
-0.04121466 -0.032809637 -0.029064277 -0.038679324 0.01638573 -0.04199705 0.0154358335 0.01911531
-0.067373514 -0.043904826 0.009577297 0.053187296 0.03641375 -0.0003621119 -0.03203067 0.025055502
0.043259688 0.004927966 0.0374922 -0.043802664 0.017689086 0.050295413 0.01650398 -0.022830322
-0.058332585 -0.0557188 0.03949523 0.019117737 0.0047377124 -0.05807469 -0.063888684 -0.05923021
-0.014871549 -0.04056302 -0.03127016 0.034730732 0.048833355 -0.049675364 0.010347378 -0.01018507

linear1.bias f4 [150]
00000000: 89dc 6ebd bab2 883c 3ffc 573c 4b13 cf3a
00000010: 85f8 03bd 9d80 143d 2ff7 8bbd de51 c8bc
00000020: 0899 42bd e38a 5a3c 4a72 e53c 779b 733d
00000030: 0d5f 0c3d c99a 19bd f003 24bd e7ce b0bc
00000040: d6a6 aebc bc2b 663d 5af0 313d fb30 16bd
00000050: 98e6 5d3d 43ab 53bd 04e9 91bc 5348 233d
00000060: dc39 543d 716d 1d3d 4e3f 7fbc c53b b8bc
00000070: 193a 79bd f8ac d1bc 8845 11bd 5218 26bd
00000080: b755 023d 8192 0ebd 6620 723c d47a 193b
00000090: 5222 573d 73b6 0f3b 3365 853c cfac b3bc
000000a0: f181 853c de7f 0b3d 2672 2ebd 7655 42bc
000000b0: 1eba 17bc 887b 2f3d 4363 debc de48 023d
000000c0: 0af8 ebbc 5fcc 7a3c 65a5 863c 1b9f 123d
000000d0: 740c 853d 8dd9 863c dc1f 04bd 8ea6 513c
000000e0: 5dbb 123d 01eb c53c 284f bebc 880b 183d
000000f0: 4d01 ba3c 28a9 493c 4e03 febc bd3a cfbc
00000100: bde7 c73b de52 e43c 4a5d 86bc 1a7b 613b
00000110: b1d0 55bd 33d5 87bd 7f9c 96bc d949 05bd
00000120: 2587 333d 6c7b 94bc ed34 75bc 45f0 06bc
00000130: e209 08bd 402b 03bd d030 533c 37a2 42bd
00000140: a3c8 bc3c 22ad b2bc a1d8 8fbc c5f5 ab3c
00000150: 8f18 1a3d f8e2 4cbd 657d 4a3d fce1 4dbd
00000160: 2273 00bc e7fe 8d3c 51a6 6cbc 633d ec3c
00000170: a432 bc3c a5ca d6ba d1ee 19bc 51fd ecbc
00000180: 3696 71bd 32e0 60bc 2d63 1fbd 561f cebc
00000190: 48f1 10bd 8bb1 e73c c589 3dbd 565d 53bc
000001a0: f18a b13b 1b4d 64bd f652 09bd 3774 45bd
000001b0: 90f5 7c3d 5642 733d 0331 18bd 8c3e c63c
000001c0: bf54 34bc b89d a0bc 17fc 27bd 2c51 21bc
000001d0: 12dc 88bc 6181 49bd 829d d23b bfdb ec3c
000001e0: c2b9 863d 5f73 1c3d 07ae 1bbd 323c 04bc
000001f0: dd67 07bd ef7b b73b 911d e03c 4bd8 943d
00000200: 6630 9fbc 9e72 36bd 063f 09bd 3afa 1e3d
00000210: eed1 153d b3c0 96bc e27f e03c 0d05 ca3c
00000220: 1f7e 85bb 3d41 8d3d 8c62 ddbc 6cfd 32bd
00000230: 1d19 6b3c 39f2 053c c163 213d 2f4c d9bc
00000240: 407f 4b3d eda1 84bb 9c67 853c 6bd4 b43c
00000250: b786 caba c468 2b3d
-0.058315787 0.016686786 0.013182699 0.0015798596 -0.03221943 0.036255468 -0.06834256 -0.0244531
-0.047509223 0.013338777 0.028008599 0.059474435 0.034270335 -0.03750113 -0.040042818 -0.021583034
-0.021319788 0.056194052 0.043442108 -0.036667805 0.05417499 -0.051677 -0.017811306 0.039863896
0.05181299 0.03843445 -0.015579058 -0.022489438 -0.060846422 -0.025595173 -0.0354667 -0.040550537
0.031820025 -0.034807686 0.014778232 0.0023419159 0.052522965 0.0021928817 0.016283607 -0.021932987
0.016297312 0.03405749 -0.04258933 -0.011861196 -0.009260682 0.042842418 -0.027146941 0.031807773
-0.028804798 0.015307515 0.016436288 0.035796266 0.06496516 0.016461158 -0.032256946 0.012796057
0.035823215 0.02415991 -0.023231104 0.037120372 0.022705698 0.012308396 -0.031007435 -0.025296563
0.0061006234 0.027871545 -0.016401906 0.003440565 -0.052200977 -0.066324614 -0.01838517 -0.03254113
0.043830056 -0.018125258 -0.014966232 -0.008235996 -0.03321255 -0.03202367 0.012890056 -0.04751798
0.02304489 -0.021811072 -0.017559351 0.020991215 0.037621077 -0.05002114 0.04943599 -0.050264344
-0.00783995 0.017333461 -0.01444395 0.028837865 0.022973366 -0.0016387297 -0.009395317 -0.028929384
-0.058981143 -0.013725327 -0.03891294 -0.025161427 -0.035386354 0.028282901 -0.046273965 -0.012900671
0.0054181744 -0.055737596 -0.033526383 -0.048206534 0.061757624 0.059389435 -0.037156116 0.024199747
-0.011006533 -0.019606456 -0.041011896 -0.009846013 -0.0167065 -0.04919565 0.006427468 0.028913377
0.06578399 0.038195964 -0.038007762 -0.008070992 -0.033058036 0.005599491 0.027357848 0.07267817
-0.019432258 -0.0445429 -0.03350737 0.038812853 0.036577158 -0.018402433 0.02740473 0.024660612
-0.0040738727 0.06897209 -0.02702453 -0.043698713 0.014349249 0.008175426 0.039401773 -0.026525585
0.049681902 -0.0040476234 0.016284756 0.022073945 -0.0015451525 0.04184796

linear2.weight f4 [52, 150]
00000000: c85c 96bd 3380 06bd ba5a cc3d 19d2 483d
00000010: 7c2b b93c af50 58bd 4ec9 73bd 2329 393d
00000020: 9336 83bb 5d62 043d da93 b33d 117f bc3d
00000030: 8453 a93d cea6 c6bd 5af1 44bd d73c 1f3d
00000040: ba6d a0bd 1e8f 30bd 5772 15bc 7806 343d
00000050: e014 893d 34a5 afbd f37f 2fbd dca3 a93d
00000060: 6ea1 10bd 5bd0 cd3d 63c6 2a3c aa18 99bb
00000070: b41c fd3b d1c8 3d3d 789d 6cbd cb29 afbd
00000080: 871d 4c3c edc9 42bc 671c 1a3d 6ebf be3d
00000090: 75f7 a63c 49af 03bd 5739 e0bc d12b 5a3d
000000a0: f066 593d 1919 5a3d b0e3 8bbd d9c9 da3a
000000b0: 3e89 443d 0d0a 3f3d a1eb c3bd f9a2 643d
000000c0: 46ea 5bbd 70fa d7bc 66cb 1e3c c241 54bd
000000d0: 2aa3 013c 0435 8c3b 017c 6bbd 139f 293d
000000e0: cd08 09bd 9116 2a3c 349c 97bc 99e7 573c
000000f0: 8a05 4a3d b72e f93c 0846 563d 0a75 f3bc
00000100: 1001 943d 27d8 d8bb d1d8 ae3c 6ddc b6bb
00000110: 74cf e8bb ab23 4ebd 6ceb 3bbd 5d92 d2bd
00000120: 0ce6 333c 5888 debc 1245 27bd abed c5bd
00000130: 3965 293d e5c0 98bd a8e3 ad3d e5d8 523b
00000140: ee7c 243d a695 b6bd 2dde c2bd eb9c 59bd
00000150: 1833 9b3d 8896 b4bc 1b96 853c eaa1 dd3c
00000160: c00c 0c3d e9b1 093c 26de 473d f547 33bd
00000170: 2e97 703d 158b 7a3d 8ec4 45bd 1574 5abd
00000180: 5610 62bd da93 60bb a0ba 3e3d 873e fabc
00000190: bccb 5e3d 683c 3dbc 4129 d43a 5e42 a5bd
000001a0: 3da8 233d 265d afbc 9a55 73bc cd5e 113d
000001b0: e9dc 29bd 71b8 c23c 0c8d 7fbd f9ec cc3d
000001c0: ea7d 743d 812c 103c 241e 69bd 8324 56bd
000001d0: 5ffc 303c c30e c83b cd2c 533d 1e3d 22bd
000001e0: 1948 e8bc 1c02 9b3c e318 a2bc d516 20bd
000001f0: 4407 ccbd 6bf0 ae3d 0ed7 d03d 060e de3c
00000200: fdb3 94bd b5e5 3cbd 7c81 b2bc d311 963d
00000210: 9936 823c 22b6 883b 1639 df3c 7045 153d
00000220: 0a8c 09bc 76ad 4e3c 150b 95bd 4440 b9bd
00000230: fe82 73bc b428 e9bb a26b ea3b ec61 c6bd
00000240: 548b 8e3d 4627 f63c 2e30 d43d 90bd 54bd
00000250: ec31 8abd 55ef 2b3d f145 5c3d 5988 af3d
00000260: ab57 c6bc 98e0 b03d 9d82 a1bd 3f50 56bd
00000270: 0019 bfbd f9ed 14bc 9bc8 b4bd 7093 8a3d
00000280: 97b0 883c 1ee6 f638 7ac3 94bc 41cc 6ebd
00000290: 2ebe c1bd 371c 83bc 60fb 9ebc b130 9f3d
000002a0: 8c11 933d 6fcb 4cbd 7a0f ac3d 91d1 b1bd
000002b0: e52c 8e3c 1b3f 30bd c65d c53d 68da 7b3d
000002c0: 078a 88bc 79f7 813d 962c a9bc 8596 cbbd
000002d0: 3b28 c7bd 5436 87bc bfd3 64bd e818 653d
000002e0: fdd0 a93c d985 963d c151 1bbd e01c 8dbd
000002f0: c26e af3c 4528 ad3c bf14 2ebd 4b52 d1bc
00000300: 3c6b 2fbc 6d8e 7dbc a83d 97bd 4385 c43d
00000310: ffe8 b4bd 5c6c 03bd f6b9 c7bd 8da7 a23d
00000320: b256 633d 42c8 69bc 6269 793a 609e 3b3d
00000330: 4511 153d 0cd8 3ebd ac86 9dbc 077b b13d
00000340: ce8f acbd b565 aa3d 9e67 603d 9036 9e3d
00000350: b3a6 833a d5bc 95bd 16c6 3b3d 7047 ea3b
00000360: d70d 363c 6d55 993d eea7 69bd 6426 f7bc
00000370: 1267 f5bb 5299 99bd 1f84 53bb 9194 a4bd
00000380: b76a 033d b275 f9bc 34f6 283d 2283 c1bc
00000390: 3185 45bd 71c0 91bd 4e01 b73d acf0 1a3c
000003a0: 5806 1bbd eff9 e2bb f5f8 763d bf92 143d
000003b0: 02e1 283d 6a7f 433c 6bd1 b2bd 1fc3 4bbd
000003c0: ede5 d9bb 675a 8ebc 0d46 693b a911 febb
000003d0: 4685 febc 9467 803d 0d9c 69bd 4d5e 9abd
000003e0: 0013 f3bc 96f6 c6bd 3d5c 023d db37 62bd
000003f0: 87fb 95bd 0ead 94bd 8755 43bd be11 a2bd
-0.07341915 -0.032837104 0.09978242 0.04902849 0.022603743 -0.05281132 -0.05951815 0.045205247
-0.0040043085 0.03232037 0.08768435 0.092039235 0.082678825 -0.09699784 -0.048081733 0.03887638
-0.07833429 -0.043105237 -0.009121499 0.04395148 0.06693435 -0.08576432 -0.04284663 0.08283207
-0.0353102 0.10049506 0.010423276 -0.0046721296 0.007724369 0.04633409 -0.05776736 -0.08552893
0.012458212 -0.011888963 0.037624743 0.09313856 0.020381669 -0.032149587 -0.027371092 0.053264443
0.053076684 0.05324659 -0.06830537 0.0016692235 0.047982447 0.046640445 -0.09566427 0.055819485
-0.053690217 -0.026364535 0.009692049 -0.051820524 0.0079124365 0.004278781 -0.057491306 0.04141147
-0.03345566 0.010381357 -0.0185071 0.013177776 0.04932169 0.030417783 0.05231288 -0.029718895
0.07226765 -0.0066175642 0.02134362 -0.005580476 -0.0071048085 -0.050326984 -0.045878813 -0.10281823
0.01098014 -0.027164623 -0.040837355 -0.09664472 0.0413563 -0.07458667 0.084906876 0.0032172736
0.040158205 -0.08915262 -0.09515033 -0.053128164 0.07578105 -0.022044435 0.016306927 0.027054746
0.034191847 0.0084042335 0.04879584 -0.043769795 0.058737926 0.061167795 -0.048283152 -0.05333336
-0.05519136 -0.0034267814 0.0465647 -0.030547393 0.054393515 -0.0115500465 0.0016186611 -0.08069299
0.039955366 -0.021406721 -0.014851952 0.0354908 -0.041470442 0.02376959 -0.062390372 0.100061364
0.059690394 0.008799673 -0.05691351 -0.052280914 0.010802357 0.0061052754 0.051556397 -0.039609067
-0.028354691 0.018921904 -0.019787258 -0.039084274 -0.09962323 0.0854195 0.101972684 0.027106296
-0.072608925 -0.046117503 -0.021790259 0.073276184 0.015895175 0.0041721025 0.0272489 0.036443174
-0.008395204 0.0126145985 -0.07277504 -0.09045461 -0.014862774 -0.007115448 0.007153944 -0.09686646
0.069601685 0.030048024 0.10360752 -0.051938593 -0.06747803 0.04197629 0.05377764 0.08570928
-0.024211725 0.08636588 -0.07886241 -0.052322622 -0.0933094 -0.00908994 -0.08827325 0.06766403
0.016685767 0.00011773057 -0.018159617 -0.05830026 -0.09460102 -0.016004665 -0.019406974 0.07772959
0.07181081 -0.049998697 0.084013894 -0.0868255 0.017355392 -0.043028932 0.096370265 0.061487585
-0.016667379 0.0634603 -0.020651143 -0.09940819 -0.0972447 -0.016505398 -0.055866 0.055931956
0.020729536 0.07349748 -0.037919763 -0.06890273 0.021415118 0.021137366 -0.042500254 -0.025551936
-0.010706719 -0.0154758515 -0.07384807 0.0959573 -0.08833503 -0.03208576 -0.09752266 0.07942114
0.0555026 -0.014268937 0.00095142995 0.045805335 0.036393423 -0.046592757 -0.019229256 0.08666044
-0.08425866 0.0832018 0.054786317 0.07725251 0.0010044187 -0.073114075 0.045843206 0.0071496293
0.011111698 0.07486997 -0.057044916 -0.030169673 -0.0074890936 -0.07499947 -0.0032274795 -0.08036149
0.032084193 -0.03045163 0.041250423 -0.0236221 -0.048222724 -0.071167834 0.08935796 0.009456795
-0.037847847 -0.006926767 0.060296018 0.03627276 0.04123021 0.011932233 -0.087313496 -0.04974663
-0.0066497237 -0.017377092 0.0035594732 -0.00775357 -0.03106941 0.06269756 -0.057033587 -0.07537518
-0.029672146 -0.09715001 0.031826247 -0.05522905 -0.07323366 -0.0725957 -0.047688987 -0.0791354

linear2.bias f4 [52]
00000000: 9c62 e63b a38e 79bc 6a8c 4f3d 26ce 613c
00000010: a09a 0bbd 29ae 9f3c 5fe9 9f3d 14f3 f53b
00000020: acf8 0dbd 7bb9 0bbc 6097 18bd 4dd3 7b3d
00000030: f4ab 34bd d66b 37bd 3af0 fb3b e56d 4c3d
00000040: 9bd3 bf3c 24dd 9b3d 8a30 753d 5201 36bd
00000050: b664 783c df11 ae3d 4078 c0bc faa5 e1bc
00000060: e67b 583c 846e 713d 0bda 873c 8adb 213d
00000070: 03eb 0d3b 01a7 a03d 7635 913d 03c9 893d
00000080: 2fe1 66bd 2add 9a3d 67b8 42bd 42e3 543d
00000090: 60f3 573d 2b2d 2bbb 124d 553d 3a6a 9e3d
000000a0: 7e1d 2d3d 0360 5a3d f2a8 d0bc 6173 c93c
000000b0: bb67 a83d 0f7d c0bc 2591 04bd 6e95 9f3c
000000c0: 299e 143d 260d ea3b 5647 c4bc bf0d 523d
0.007030798 -0.015231761 0.05067102 0.01378206 -0.03408301 0.019492226 0.07808184 0.007505784
-0.03466098 -0.008528109 -0.037253737 0.06148081 -0.0441093 -0.044780575 0.0076885493 0.04990949
0.023416331 0.076105386 0.059860744 -0.044434853 0.01516073 0.084995024 -0.02349484 -0.027544964
0.013213133 0.058943287 0.016583463 0.03951601 0.002165497 0.078443535 0.07090275 0.06727793
-0.056367096 0.07561715 -0.04753914 0.051974542 0.052722335 -0.0026119452 0.052075453 0.07735105
0.042264454 0.05331422 -0.025471184 0.02459115 0.0822291 -0.023497133 -0.032364983 0.019480433
0.036283646 0.0071426807 -0.023959797 0.05128264
